trained_model.pt (torch, 72388 bytes, 6 tensors)

layer1.weight f4 [128, 4]
000000 ac 0d 61 3e ea 43 bc be b6 d7 e5 be dc 90 41 be
       0.21977872 -0.36770564 -0.44891137 -0.18902916
000010 44 18 92 3e b6 48 df be 7a 48 ca be e8 cf ed bd
       0.28534138 -0.43610162 -0.3950842 -0.116119206
000020 f8 9c e1 bd 8a 32 a9 be d0 47 27 bd 00 e6 ae 3c
       -0.110162675 -0.3304637 -0.04083997 0.021349907
000030 54 08 46 3e 66 8d ac 3e 70 9f 93 be 32 53 af be
       0.19339114 0.33701628 -0.2883258 -0.3424316
000040 4a e6 d7 be 10 c5 80 be 3e 27 c0 be 80 8f 2e 3e
       -0.42167884 -0.25150347 -0.3752994 0.17046928
000050 50 e6 c4 be d0 05 14 be e8 37 ac 3e f0 a5 d4 bd
       -0.38456964 -0.14455342 0.33636403 -0.103832126
000060 00 02 23 3c 58 b4 a6 be 80 6f 1a 3c 82 75 95 be
       0.009949207 -0.32559466 0.009425998 -0.29191214
000070 46 8a e6 be 80 17 b9 be 08 1c 4f 3e e0 03 ad be
       -0.4502737 -0.36150742 0.20225537 -0.3379202
000080 c4 d4 07 be c0 22 e4 3d 80 ff 10 be 80 ff 04 bc
       -0.13264757 0.111394405 -0.14159966 -0.008117557
000090 04 cb c6 3e f8 d3 a0 bd 58 6e b3 3d 7a 0c 97 be
       0.38826764 -0.0785293 0.08761281 -0.29501706
0000a0 9a 2d 80 be 7a 26 97 3e d6 0d fe be 62 bf e6 3e
       -0.2503479 0.29521543 -0.4961993 0.45067888
0000b0 f8 98 ce bd b2 b4 f2 be 1e 61 ab 3e 80 6c a9 3c
       -0.1008777 -0.47403485 0.33472532 0.02068162
0000c0 20 fc 8a 3e 88 eb 6e 3e 58 a5 b8 3e 60 09 43 bd
       0.2714548 0.23332036 0.36063647 -0.047616363
0000d0 d8 e1 8e be b0 93 b3 be 9c ef 74 be 7c ab f5 be
       -0.2790668 -0.35073614 -0.23919529 -0.47982395
0000e0 7c 91 48 3e b0 86 6a 3e 0e ea 80 be c0 47 fd bd
       0.19586748 0.22902942 -0.2517857 -0.12367201
0000f0 c0 f1 91 3e 86 8b b4 3e b4 ee 8c 3e 92 be ac be
       0.28504753 0.35262698 0.27525866 -0.33739144
000100 56 1a 92 3e dc 56 dd be d0 75 9a be f8 ae a3 3e
       0.28535718 -0.4323033 -0.3016801 0.31969428
000110 9c 8a 66 be 88 a9 d9 3e 68 cc 9b be e0 11 64 bd
       -0.22513813 0.42512155 -0.30429387 -0.05568111
000120 00 b6 1e bd d4 eb 03 3e d0 24 02 3e 80 93 99 be
       -0.038747787 0.1288293 0.12709355 -0.29995346
000130 d4 ec b1 3e 14 e7 0c 3e 2c f7 f8 3e 70 c3 c2 3d
       0.34750998 0.13760024 0.48626077 0.09509933
000140 c0 0e 11 3e 30 d1 f2 3d 80 78 9e 3d f2 a7 b3 3e
       0.14165783 0.118563056 0.07737827 0.3508907
000150 78 39 fd bd 8a 61 e9 3e 00 c9 b4 3b 5e e2 f9 be
       -0.12364477 0.4558223 0.005517125 -0.48805517
000160 00 36 a7 be 40 e3 ba 3e 68 ba 46 be 58 58 a8 bd
       -0.32658386 0.36501503 -0.19407046 -0.08219975
000170 60 06 d8 3c 08 d2 aa 3d ac b0 ba be 66 66 f3 3e
       0.026370227 0.083408415 -0.36462915 0.4753906
000180 2c 5f d9 3e 48 b9 f4 3d 48 31 c0 bd c8 e7 02 3e
       0.42455423 0.11949402 -0.093844 0.1278373
000190 ea 79 e0 3e 1c 93 f6 3e 5c 59 ae 3e a6 ce c6 be
       0.43843013 0.4815911 0.3405255 -0.38829535
0001a0 b0 1d cf bd 94 74 fc 3e f0 de e8 3d 00 fa 9b bb
       -0.10113084 0.49307692 0.11370647 -0.004760027
0001b0 e0 14 0b 3d 08 a6 18 3e 68 11 fe 3d c8 50 05 3e
       0.033955455 0.14907086 0.12405664 0.13019097
0001c0 80 47 2d bc 2c c6 bc be 00 a8 6b bb d8 63 26 be
       -0.010576129 -0.36869943 -0.003595829 -0.16249025
0001d0 d4 df 6f be 10 44 d8 3d 90 13 99 be 1c 76 e9 be
       -0.23425227 0.10559857 -0.29897738 -0.45597923
0001e0 00 a0 91 3e 06 64 e2 be 7e 0b 9a be b8 4b 7a 3e
       0.28442383 -0.44216937 -0.30086893 0.24442947
0001f0 78 39 7b be 80 98 af be 40 55 89 bd 26 da 8c be
       -0.24533641 -0.34296036 -0.06705713 -0.27510184
000200 78 4a 8d bd 58 93 7b 3e 00 e9 e5 bb 50 1e 7e be
       -0.068989694 0.24567926 -0.007016301 -0.24816251
000210 40 52 fe 3c 8e 43 b1 3e a8 d0 ea be 00 2f b2 bc
       0.03104508 0.34621853 -0.45862317 -0.021750927
000220 12 79 b5 be 34 92 33 be 34 47 37 3e 1c eb 2f 3e
       -0.35443932 -0.17536241 0.17898256 0.17179531
000230 e2 1e b9 be 4a d5 b7 3e f2 b8 c7 3e 24 b2 e1 3e
       -0.36156374 0.35904914 0.3900829 0.44081223
000240 0c 76 4b be 90 46 d8 3e fc eb bd be 68 7e 20 3e
       -0.1986925 0.42241335 -0.37094104 0.1567322
000250 00 d9 14 bb 68 04 df 3e b0 a6 84 be 2e 40 a7 be
       -0.002271235 0.4355805 -0.25908422 -0.32666153
000260 6e 60 89 3e c0 52 54 3c 4c ce c9 be 5e 6e 87 3e
       0.26831383 0.012959182 -0.39415205 0.2645139
000270 28 e9 a8 be 84 06 1a 3e c2 0d f6 3e 28 6d 53 3e
       -0.32990384 0.15041548 0.4805737 0.20647109
000280 f0 98 be be 9a 0c cf be a0 d9 89 3d c4 28 b1 be
       -0.37226057 -0.40439302 0.06730962 -0.34601414
000290 40 38 88 bd da d7 fa 3e d0 31 dd bd 62 2e d1 be
       -0.06651354 0.48992807 -0.108005166 -0.408557
0002a0 b4 0c 21 3e 2e 7f a9 3e d2 c6 b7 be ec 04 57 be
       0.15727502 0.33104843 -0.35893875 -0.20997971
0002b0 b0 bc 8d 3e c0 3f 47 3e 00 01 21 3d 12 d7 dd be
       0.2768302 0.19457912 0.039307594 -0.43328148
0002c0 b0 8b 9d 3d 40 ad 16 bd 04 16 3b 3e d2 c6 fd 3e
       0.07692659 -0.036786318 0.18270117 0.4956575
0002d0 84 69 00 be 20 6c 84 bc 50 f8 56 be 32 0a ea 3e
       -0.12540251 -0.01616484 -0.20993161 0.45710903
0002e0 cc b6 5a be 9c 46 89 be f8 07 2a 3e 64 4d 16 3e
       -0.21358794 -0.26811683 0.16604602 0.1467796
0002f0 c0 8f 3c bc 14 95 c0 3e f4 ce 6e be a8 ab 40 3e
       -0.011508882 0.37613738 -0.23321134 0.18815482
000300 30 96 c3 3e 58 c5 8a bd fe c4 8b be 7c 8f c9 be
       0.3820052 -0.067759216 -0.2729873 -0.39367282
000310 40 5c bb 3c b6 65 ba be 98 dd 56 be c0 4c 5e 3e
       0.022871137 -0.36405724 -0.20982969 0.21708965
000320 e0 79 62 3d 98 ff 4d 3e 4a 94 c8 be cc 19 c1 be
       0.05529201 0.20117033 -0.39175636 -0.37714994
000330 00 b3 59 3b 9e 05 bc 3e 24 14 a3 3e a2 44 8b 3e
       0.0033218265 0.36723036 0.31851304 0.272008
000340 00 37 b5 3c ce 44 d4 3e 5e 1f f2 be 04 8c 52 be
       0.022120953 0.41458744 -0.47289556 -0.20561224
000350 7a dd c0 be e0 5b 37 be 08 ef 86 3d 5e db f0 3e
       -0.37668973 -0.17906141 0.0658856 0.47042364
000360 8c df 1b be 24 7a c0 be 30 5f 9e be d0 9b 89 bd
       -0.15221995 -0.37593186 -0.30931997 -0.06719172
000370 e6 d2 9c be b0 4a 52 be 06 1f b9 3e 20 79 99 bc
       -0.30629653 -0.20536304 0.36156482 -0.018734515
000380 98 b7 70 3e 7a 31 a2 be 74 2f c4 be 1a 1a a8 3e
       0.23507535 -0.31678373 -0.38317454 0.32832414
000390 f4 3f 3a be 3e 6b a3 3e a6 54 89 3e 84 f6 4a be
       -0.18188459 0.31917757 0.26822394 -0.19820601
0003a0 a0 f6 fe bd 78 d8 a3 3d 88 57 9d be 9e c8 a6 3e
       -0.12449384 0.080002725 -0.30730844 0.32574934
0003b0 38 59 c5 3d 98 62 87 3e 32 42 81 3e f8 d9 c3 bd
       0.09636158 0.2644241 0.25245816 -0.095630586
0003c0 58 56 39 be 30 44 60 3d 88 9b 26 be 58 2e 36 3e
       -0.18099344 0.05475253 -0.16270268 0.17791116
0003d0 b0 72 79 bd 30 c7 a5 bd 78 50 e7 bd a2 43 d8 be
       -0.06090039 -0.080946326 -0.11294645 -0.422391
0003e0 d2 47 80 3e 2c e5 5e be ac 24 d1 be f0 2b 89 3e
       0.25054795 -0.2176711 -0.4084829 0.26791334
0003f0 80 bf 56 3c 98 7d b2 3d 8e 10 bc 3e fc 16 fe 3e
       0.013107181 0.08715361 0.3673138 0.4962691

layer1.bias f4 [128]
000000 62 57 9d 3e 96 5a 93 3e e8 51 c2 be e2 e4 95 3e
       0.3073073 0.2878005 -0.37953115 0.29276186
000010 10 91 2a 3e 20 c3 15 bd a6 9e c4 be 14 0a 12 3e
       0.166569 -0.03656304 -0.3840229 0.14261657
000020 dc 05 5b 3e 60 a7 51 3e 90 2c be bd f2 4f fe be
       0.21388954 0.20474005 -0.09285843 -0.49670368
000030 a0 56 72 3e c8 11 12 3e 42 62 f5 3e b4 a5 5c be
       0.23665857 0.14264596 0.47926527 -0.21547586
000040 68 b4 3e 3e dc 51 25 be 5e 46 c8 be 7e 57 ac 3e
       0.18623507 -0.16144508 -0.39116186 0.336605
000050 1c cb 9e be 0a f2 ed be 98 8c 64 3e 20 4a 98 3c
       -0.31014335 -0.46473724 0.22319257 0.018590033
000060 98 58 bb bd 88 0a eb be 10 58 5e 3e f2 c4 87 3e
       -0.09147757 -0.45906472 0.2171328 0.26517445
000070 98 b9 a9 3d c2 05 e5 be 00 68 ac bd 18 77 ae 3e
       0.08287352 -0.44730955 -0.08418274 0.34075236
000080 de e1 c0 3e 4e 09 a9 be 7e 0d 87 be 58 0a c4 3e
       0.37672323 -0.3301491 -0.2637748 0.38289142
000090 10 38 88 3e 20 6d 33 3d e2 b0 bd be f6 86 a0 be
       0.26605272 0.04380524 -0.37049013 -0.31352967
0000a0 0c 4b fa 3e b0 48 68 be d0 a4 8a 3e fc a6 08 3e
       0.4888538 -0.22683978 0.27078867 0.1334495
0000b0 20 05 f5 3d fa 0a f7 3e 08 e9 b0 bd e2 fb ba be
       0.11963868 0.48250562 -0.08638197 -0.36520296
0000c0 58 a0 9f bd ea aa d7 3e 1a a9 b1 be 92 f1 e1 be
       -0.07794255 0.42122585 -0.34699327 -0.44129616
0000d0 5e d3 b1 be f8 11 77 be 00 8c f0 bb 84 b4 77 3e
       -0.34731573 -0.24127948 -0.007340908 0.24189955
0000e0 6a 67 c9 be 40 3c 96 3c 80 cb 97 bc 46 ed cb be
       -0.3933671 0.018339276 -0.018529654 -0.39829463
0000f0 66 48 c7 3e a4 9d bc 3e 20 5b 93 bd a0 8a fb bd
       0.38922423 0.3683902 -0.07195115 -0.122823
000100 d6 b6 cc 3e 74 d0 3e 3e 4e 53 d9 be 60 02 8e be
       0.39983243 0.18634206 -0.4244637 -0.27736187
000110 fe 8e ac 3e e0 b8 07 be 00 3f c8 bd 60 32 b1 bc
       0.33702844 -0.13254118 -0.09777641 -0.021630466
000120 00 b1 66 be 8c d1 d4 3e 4a 1a cf be 82 70 e8 3e
       -0.22528458 0.41566122 -0.40449744 0.45398337
000130 70 bb 99 bd f0 f5 16 be 8c c8 fc 3e 4a 37 ea be
       -0.07506454 -0.14742255 0.49371755 -0.45745307
000140 7a 40 e1 be 88 22 b2 3e 18 77 c8 3d d0 98 ca 3e
       -0.43994504 0.3479197 0.0978834 0.39569712
000150 70 3c 48 3e 68 f8 fc 3d dc bb 5b 3e a8 8c 75 3e
       0.19554305 0.12352067 0.21458381 0.23979437
000160 18 44 a2 bd fa ef f5 be 88 4a b6 bd 60 4b a8 bc
       -0.07923144 -0.4803465 -0.089009345 -0.020543754
000170 a8 73 e1 be 04 ca 02 be 7e 80 a9 be 9e 04 b8 3e
       -0.4403355 -0.12772375 -0.33105844 0.35941023
000180 28 3c 9e 3e 62 30 a6 be 20 d8 d5 bd 2e e7 99 be
       0.3090527 -0.32458788 -0.10441613 -0.3005919
000190 3e c0 ee 3e b4 28 f5 be 14 37 e3 be 30 5f 6f bd
       0.46631044 -0.47882617 -0.4437796 -0.058440387
0001a0 de 2f c8 be 30 70 c6 bd 20 b6 89 3e b0 92 8f be
       -0.3909902 -0.09689367 0.26896763 -0.280416
0001b0 82 53 e0 be 2a 2b e3 be 10 6e 33 bd a4 e6 eb 3e
       -0.4381371 -0.4436887 -0.043806136 0.46074402
0001c0 82 e6 d8 be 90 95 a0 3e 68 1c 11 3e 1a c5 fd be
       -0.42363364 0.31364107 0.14170992 -0.4956444
0001d0 e6 de a9 be c0 e3 87 bd 46 e6 b3 be 38 31 46 3e
       -0.3317787 -0.06635237 -0.35136622 0.19354713
0001e0 44 c6 17 be e0 b9 94 bd 76 f7 f9 be 7e a6 d9 3e
       -0.14821726 -0.07262015 -0.4882161 0.42509836
0001f0 4a 8e e9 be 28 01 cb 3d a0 03 ea be d6 23 de 3e
       -0.4561637 0.0991233 -0.4570589 0.43386716

layer2.weight f4 [128, 128]
000000 4a cb 9b bd c0 fe 87 bb 74 05 b7 3c 73 13 87 bd
       -0.07607134 -0.0041502416 0.022341467 -0.065955065
000010 bc ab a7 bd f2 98 52 3d 00 d4 ca ba 70 48 be bb
       -0.081870526 0.05141539 -0.0015474558 -0.005806975
000020 89 59 66 bd 48 c8 84 bd 08 88 05 bc c3 fe 2c bd
       -0.05623773 -0.06483513 -0.008150108 -0.042235147
000030 ad ee b4 bd ca b9 76 3d c3 2e 8b 3d 8d 36 49 bd
       -0.08834586 0.060235776 0.067960285 -0.04912429
000040 7e 6f 59 3d 80 01 0f 3a 9a 4e 31 3d 30 b9 06 bc
       0.053084843 0.00054552406 0.04328785 -0.008222863
000050 0c 3e fa 3c 0d 22 95 3d 1c 63 89 bc a7 e1 96 bd
       0.030547164 0.07281885 -0.016770892 -0.073672585
000060 d9 71 58 bd 5b 03 96 3d f3 d7 94 3d ed d7 a4 3d
       -0.05284295 0.07324859 0.072677515 0.08048997
000070 31 08 a9 3d b2 0c 17 bd 05 f1 34 bd 40 0a b5 3b
       0.082535155 -0.03687734 -0.044175167 0.0055249035
000080 1c 71 a9 bd 9c eb 0d bd ab 5b b1 bd 00 01 8b bc
       -0.08273527 -0.034648523 -0.086600624 -0.01696825
000090 e7 21 89 bd ea 8d 3b 3d 7a 8d 1b 3d 7e 6c 67 3d
       -0.066959195 0.045789637 0.03797672 0.05649995
0000a0 c0 41 8c bd 48 61 9a bc 00 09 9a 39 70 7a 62 3c
       -0.06848478 -0.018845215 0.00029379874 0.013823137
0000b0 04 ce 01 3d f2 bb 1c bd 10 b4 86 bd b0 be f7 bb
       0.031690612 -0.038265176 -0.06577313 -0.0075605735
0000c0 0c 02 04 3d bc cf b2 bd 36 70 76 bd 90 5e 9e bc
       0.032228515 -0.087310284 -0.060165606 -0.0193322
0000d0 c9 d5 87 3d 10 38 f7 3c d1 09 32 bd c0 15 19 3b
       0.06632573 0.0301781 -0.043466393 0.0023358911
0000e0 97 08 88 bd 8e 3c a0 bd d8 a4 38 3c 90 77 db bc
       -0.066422634 -0.0782405 0.011269771 -0.02679041
0000f0 80 a5 da 3a 96 00 4c bd 46 cc 74 3d fc ed a0 bc
       0.0016681403 -0.049805246 0.059765123 -0.01964473
000100 88 37 15 3c 40 ea b0 bb 1c 22 26 bd b8 43 b1 3c
       0.009107478 -0.0053990185 -0.040559873 0.021638736
000110 b5 88 aa 3d ee 40 b1 bd 00 9b 6a bd f8 62 ab bd
       0.08326856 -0.086549625 -0.057276726 -0.08368486
000120 3c 00 fd 3c a4 65 88 3c 70 e4 95 3c 79 aa 93 3d
       0.0308839 0.016650029 0.018297404 0.072102495
000130 f8 52 d4 3c ba 49 38 3d 00 b8 56 b9 04 94 bd 3c
       0.025918469 0.044992186 -0.00020477176 0.023141868
000140 62 d6 23 3d 60 15 e5 3b 43 c0 68 bd 20 c7 53 3c
       0.039999373 0.0069910735 -0.05682398 0.012925893
000150 b4 97 92 bc 14 2f 09 bd 10 0b 12 3c 1c d7 62 bd
       -0.017894603 -0.033492163 0.00891377 -0.055380926
000160 b6 65 41 3d b8 7c da bc b7 b5 9d bd c8 69 63 bd
       0.04721614 -0.026670799 -0.07700675 -0.055520803
000170 c7 fd ab 3d 82 05 49 3d 56 fd 8d bd 76 9f 6a bd
       0.083980136 0.04907752 -0.069330856 -0.05728098
000180 30 bb 99 bd 4f cf 8a bd dd d0 15 bd cf 9e 9d bd
       -0.07506406 -0.06777822 -0.03657614 -0.07696306
000190 00 95 8c 3c a1 a3 3b bd ea 96 5e 3d 9a a0 09 3d
       0.017160892 -0.045810346 0.05434314 0.033600427
0001a0 a8 f3 41 3c b0 c6 78 3c 0f 13 9c 3d 1d a6 07 bd
       0.011837877 0.01518409 0.07620823 -0.033117402
0001b0 79 9e a6 3d 39 1e 9d bd 60 9f f6 bc f3 0d 12 bd
       0.08135695 -0.0767178 -0.030105293 -0.035657834
0001c0 ba e4 71 3d 12 6f d9 bc 01 77 96 3d 07 15 61 bd
       0.05905602 -0.02654222 0.07346917 -0.054951694
0001d0 47 9c 99 bd c0 22 bc bb 40 f3 ea 3c 82 54 dd bc
       -0.07500511 -0.005741447 0.028680444 -0.027017836
0001e0 35 c6 98 3d f2 14 6c bd 87 7a 92 3d 90 85 0e 3d
       0.0745968 -0.057637163 0.071522765 0.034795344
0001f0 a1 d9 95 bd db 01 a4 3d 10 77 c5 bc 18 91 e6 bc
       -0.073169 0.080081664 -0.024104625 -0.028145358
000200 34 2f df 3c 1a cf 25 3d b0 9b e6 3c 4c 70 2f bd
       0.027244188 0.04048071 0.02815041 -0.042831704
000210 95 f4 4a bd c0 89 62 bc 64 a7 fb 3c e7 61 8b 3d
       -0.049549658 -0.0138267875 0.030719467 0.06805783
000220 be 53 5a bd ca e9 ab bd b5 b4 97 bd 40 41 ad 3a
       -0.05330252 -0.08394201 -0.07407514 0.0013218299
000230 00 5e 83 bd a8 b1 4d bc c1 ea 9f bd 80 4f 45 3a
       -0.064144135 -0.012554564 -0.07808448 0.00075268
000240 c6 1e 77 3d e4 6c d2 3c 8a 24 57 3d 28 a9 10 3d
       0.060332082 0.025686689 0.05252508 0.03531757
000250 67 92 2b bd c9 9b 96 3d 72 b6 38 3d c8 75 85 3c
       -0.041887667 0.073539324 0.04509587 0.016291514
000260 c5 00 9f 3d 03 cf ab bd 58 00 e1 bc 3d 29 a9 3d
       0.07763819 -0.08389094 -0.027465984 0.08259819
000270 8a 4c 5f 3d 81 e3 34 bd 8d 82 11 bd f8 12 aa bc
       0.054516353 -0.044162277 -0.035524894 -0.020760998
000280 4e 88 58 3d 03 38 9f 3d ab a6 a5 3d 6c 39 91 bc
       0.052864365 0.07774355 0.0808843 -0.017727576
000290 ee b7 b4 bd e8 ac ac bc ad 45 1b bd 82 88 1d 3d
       -0.08824144 -0.021078542 -0.037908245 0.038460262
0002a0 5e 97 3d 3d 41 b9 47 bd c4 6c f4 3c 48 26 36 3c
       0.046286933 -0.048760656 0.02983702 0.011117525
0002b0 98 b6 9f bc f5 7d 85 3d 48 c7 e5 bc 0c b0 7d bd
       -0.019496247 0.06518165 -0.028049126 -0.06193547
0002c0 ac d6 8d bd 30 f5 e2 3b b6 f3 13 3d 8a 18 25 3d
       -0.06925711 0.0069262013 0.036121093 0.040306605
0002d0 2e a1 42 3d 85 ac 40 bd 4b 66 8d bd 93 31 96 3d
       0.047516994 -0.047039527 -0.069042765 0.07333674
0002e0 85 b2 81 bd 7c ff 9b bd d3 14 87 bd 13 d4 b4 3d
       -0.06332878 -0.07617089 -0.06595769 0.088295124
0002f0 e0 bd ec bc c9 0b b4 3d 58 e5 44 bd f9 48 82 3d
       -0.028899133 0.0879131 -0.04807028 0.06361575
000300 d6 cc 1b 3d 40 a8 67 bd d0 44 ba bc 27 b6 0c bd
       0.038037144 -0.05655694 -0.02273789 -0.0343534
000310 3c 1f 89 bd 2f 4e 56 bd 87 58 a0 3d a4 3b 8a bd
       -0.066954106 -0.052320655 0.07829385 -0.06749657
000320 00 72 9e 3b 88 a2 de 3c d6 cf 7b 3d f4 28 fc 3c
       0.004835367 0.02717711 0.061477505 0.030781247
000330 b5 f8 9b bd 49 14 35 bd 55 22 45 bd a8 ff 20 bc
       -0.076157965 -0.0442088 -0.048128445 -0.009826578
000340 ab 47 ab bd 6e da 5b 3d 26 8e 30 3d 07 5f a7 3d
       -0.08363279 0.053675108 0.043104313 0.08172422
000350 32 f4 36 3d 2e fa 22 3d bc 7f ea 3c 20 b5 df 3b
       0.044666477 0.03978937 0.028625362 0.0068270117
000360 90 04 20 bd c2 8f 36 bd 64 b3 40 bd 40 08 25 3b
       -0.03906685 -0.044570692 -0.04704608 0.002518192
000370 68 e0 a3 bd 20 82 fe bc 9a e9 e9 bc 25 79 97 3d
       -0.080017865 -0.031067908 -0.028553773 0.07396153
000380 73 ca 29 bd 48 db cb bc dc b7 ab bd a8 9e 23 3c
       -0.041452836 -0.024884835 -0.08384678 0.009986557
000390 bc 38 be bc f0 c2 65 3c 10 b1 90 bb 32 78 ff bc
       -0.023220412 0.0140235275 -0.0044156387 -0.031185243
0003a0 d7 35 b4 bd 48 62 2b 3c 76 30 1f 3d c0 4b a9 3c
       -0.08799332 0.010460444 0.038864575 0.020666003
0003b0 c6 a6 55 bd 7b 59 8b bd a4 ea af 3c 3c e9 8a 3c
       -0.052161 -0.068041764 0.02147419 0.016956918
0003c0 59 53 2f bd cb 08 81 3d da a7 04 bd 33 56 ae bd
       -0.042804096 0.06300505 -0.03238664 -0.08512535
0003d0 a6 90 0b 3d 30 5f 97 bb 60 a3 76 bd 09 b7 2e bd
       0.034073494 -0.0046195015 -0.0602144 -0.042655025
0003e0 08 fe ae bd ac b0 8e bc 64 b5 f1 bc d0 50 2f 3c
       -0.08544546 -0.017418228 -0.02950544 0.01070042
0003f0 21 1a 39 bd a6 d3 18 3d 67 bf 3c bd 66 7e ad bd
       -0.045190934 0.03731122 -0.046080973 -0.08471374

layer2.bias f4 [128]
000000 cb 08 8b bd c5 14 9b 3d e5 7d a4 bd 78 3c 53 3c
       -0.067887865 0.07572321 -0.08031825 0.012892835
000010 f4 d5 9f bd d7 b0 8f 3d f2 1a 77 bd 1d c4 80 bd
       -0.0780448 0.070161514 -0.06032843 -0.06287406
000020 b6 fb 33 3d 34 ff ef bc 45 26 99 3d 1c 58 8d bc
       0.043941222 -0.029296495 0.074780025 -0.017253928
000030 aa cd 76 3d 86 c2 7a 3d 70 fd a8 bb a9 2b 9d 3d
       0.06025473 0.06122067 -0.005157165 0.07674343
000040 b7 be 49 bd b8 8d 3c 3c 7c 2a 2c bd 8e cb 0d 3d
       -0.049254145 0.011508398 -0.042032704 0.034617953
000050 5c d4 4d bd 20 8a 51 3c 9d 51 9f bd 63 e9 98 3d
       -0.05025135 0.012789279 -0.077792384 0.0746639
000060 5e bf 34 bd 8d dc 13 bd ce d3 58 3d c5 75 ad 3d
       -0.044127814 -0.036099005 0.052936368 0.084697284
000070 00 6a e3 39 08 bc 70 bd 10 a1 c6 3c ca b6 31 3d
       0.0004337579 -0.05877307 0.024246722 0.04338721
000080 7d b7 88 3d da 96 16 bd 4b 94 89 bd 28 e3 5f 3c
       0.066756226 -0.036764957 -0.06717738 0.013664998
000090 02 a1 56 3d 72 c1 57 3d 40 b8 d1 3b 0c c3 9b bc
       0.052399643 0.05267472 0.006400138 -0.019013904
0000a0 b7 7b a3 3d a8 2c b1 bc 16 29 4f 3d 00 d0 65 b8
       0.07982581 -0.02162774 0.050576292 -5.479157e-05
0000b0 56 7e 84 bd fd be ad 3d 36 5d 9e bd 78 e6 70 bd
       -0.06469409 0.08483694 -0.07732622 -0.058813542
0000c0 e8 df 2b bc 62 6a af bd 78 a4 09 3d 20 d8 10 bd
       -0.010490395 -0.08565213 0.033604115 -0.035362363
0000d0 db e7 88 3d 56 c1 5e 3d 5e 89 92 bd 6e 3b 3f 3d
       0.06684848 0.0543836 -0.07155107 0.046687536
0000e0 f6 c7 a2 bd b0 21 18 3c a0 74 d7 3b 5c dc ea bc
       -0.07948296 0.0092853755 0.006575182 -0.028669529
0000f0 36 4e 7f 3d 00 c0 7e 3c ca 26 45 3d fe 70 50 3d
       0.062330447 0.015548706 0.048132695 0.050889008
000100 98 91 d4 3c 1e 43 5e 3d 44 76 bd bc ab d7 78 bd
       0.02594833 0.054263227 -0.023127683 -0.060752552
000110 bc 03 4a bd c2 63 4a bd f5 a7 ae bd e0 b1 14 3b
       -0.049319968 -0.049411543 -0.08528129 0.002268903
000120 4e 2e 5e 3d 48 48 7e bc 28 6c 63 bc c6 7c 3b 3d
       0.05424338 -0.015520163 -0.013880767 0.04577329
000130 f4 5a 8f bd c7 4e 4c bd 14 25 b2 3c 15 b4 37 bd
       -0.0699977 -0.049879815 0.021746196 -0.044849474
000140 9c ff af bc 60 08 99 3b 4c 84 0e 3d bc fd 6d bd
       -0.021484189 0.004670188 0.034794137 -0.058103308
000150 6a 2a 84 bd 14 76 9a bd 7c 41 bb 3c c7 48 65 bd
       -0.06453402 -0.07542053 0.022858374 -0.05597761
000160 1e 5c a5 bd 36 26 7c 3d ed 00 ac 3d 89 ad 05 bd
       -0.080742106 0.06155988 0.08398614 -0.0326362
000170 be 3f 58 3d 1a 86 75 3d 32 05 04 bd 0f 49 9e 3d
       0.052795164 0.059942342 -0.032231517 0.077287786
000180 3a ef 64 3d be f7 7a 3d 2b 8d 9a 3d 8c d0 a8 bc
       0.055892207 0.06127142 0.07546457 -0.020607255
000190 d6 36 4d 3d fe 54 2d bd e3 b6 8e bd 50 9b 7f 3c
       0.050101124 -0.042317383 -0.069684766 0.015600994
0001a0 5c f4 a1 bc 53 7d 8f bd a0 3e 9c bc 1e a4 b1 bd
       -0.01976984 -0.070063256 -0.01907283 -0.08673881
0001b0 53 f2 92 bd aa e6 85 bd 68 cc 01 3d 22 5e fc bc
       -0.07175126 -0.06538136 0.031689078 -0.030806605
0001c0 4c 1a d7 3c 06 b7 4c 3d 95 0e 09 bd 20 aa fa bb
       0.026257657 0.049979232 -0.033461172 -0.007649675
0001d0 28 11 6a 3c 70 67 a4 3b a5 05 9d 3d 60 af 6a bb
       0.014286317 0.0050172135 0.07667092 -0.0035810098
0001e0 0a 74 61 3d 78 01 04 bc ec 49 9a 3c 7d cd 86 bd
       0.055042304 -0.008056991 0.018834077 -0.065821625
0001f0 9a 2c 77 3d 7e 22 2c 3d 9a 4f 24 3d b4 d4 8f bc
       0.06034527 0.04202508 0.040114976 -0.01755748

layer3.weight f4 [2, 128]
000000 20 0d 19 3c 58 6a 65 bc 68 d6 5e 3c f6 23 ae bd
       0.009341508 -0.014002405 0.013600923 -0.08502953
000010 85 71 4f bd c2 99 69 3d c2 bb 7c 3d 3e bb 5b 3d
       -0.05064537 0.0570314 0.061702497 0.053645365
000020 3a a9 2c 3d 7a e3 43 3d 00 b5 8c bd c0 fc d9 3a
       0.042153575 0.04782436 -0.068704605 0.0016631112
000030 66 b6 84 bd e6 4f 44 3d 1a 63 9b bd 59 2a 82 3d
       -0.06480102 0.04792776 -0.075872615 0.063557334
000040 86 ec 1f 3d f6 7f b0 bd a0 8e 51 3b cc 96 d2 bc
       0.039043926 -0.086181566 0.003197588 -0.025706671
000050 ac d9 04 3d 40 d1 72 bb 01 97 a4 3d 84 f1 84 bc
       0.03243415 -0.0037050992 0.08036614 -0.016228445
000060 56 86 6e 3d 69 70 9a 3d 12 57 dd bc a7 3b 99 bd
       0.05823358 0.07540972 -0.027019057 -0.07482081
000070 12 e0 35 3d d2 99 6e 3d 46 a2 9f bd bf de 2d bd
       0.044403143 0.058252163 -0.07794623 -0.042448755
000080 48 f9 5c bd 3a 0c 05 bd e7 45 b4 3d 1e e1 2c bd
       -0.05394867 -0.032482363 0.08802395 -0.042206876
000090 33 c6 5b bd 9e a9 26 3d 5f e3 82 3d e0 67 0b bb
       -0.053655814 0.040689103 0.06391024 -0.002127163
0000a0 44 d5 9a bc 06 6a 3c 3d 09 31 81 3d 58 a7 19 bc
       -0.018900521 0.04599955 0.06308181 -0.009378277
0000b0 de 17 4e bd 12 9c 70 bd 41 97 35 bd 96 1d 67 3d
       -0.05031573 -0.05874259 -0.0443337 0.0564247
0000c0 ee ae 32 3d 69 cc 4c bd a8 a6 b8 bc a7 39 9b 3d
       0.043623857 -0.04999963 -0.022540405 0.07579356
0000d0 6a 30 30 3d 4a 74 4d 3d 90 22 6f bc 16 a0 3d bd
       0.04301492 0.05015973 -0.014595643 -0.046295248
0000e0 d8 9c 57 bc 22 d2 0a 3d 90 0b 9a bc 84 6f 0b 3d
       -0.013159953 0.033891805 -0.018804342 0.034041896
0000f0 33 55 84 3d 35 38 9c 3d c0 cc 83 3b ae 8b 4b bd
       0.06461563 0.07627908 0.004022211 -0.049693756
000100 75 94 8e 3d 97 19 02 bd 45 27 80 3d 4c a7 03 3d
       0.0696191 -0.031762686 0.0625749 0.03214197
000110 ea 94 5e 3d d0 95 9e bb d9 59 aa 3d d6 63 2a bd
       0.054341234 -0.0048396364 0.08317918 -0.041599117
000120 39 23 a4 bd 52 f6 53 3d f8 5b 00 3d 00 73 54 ba
       -0.08014531 0.05174858 0.03133771 -0.00081042945
000130 80 0d 92 3b 6a ec 11 3d e2 54 44 bd cc 2e 12 3d
       0.0044571757 0.035625853 -0.047932513 0.03568916
000140 04 27 bb 3c a8 ec e4 3c 47 22 b2 3d 80 38 e2 bb
       0.022845753 0.027944878 0.08697944 -0.006903708
000150 f7 8e 16 bd 46 38 ed bc 26 ce 31 3d 78 b7 77 3c
       -0.036757436 -0.028957497 0.04340949 0.015119426
000160 be 5a a7 bd d6 8e 60 3d 90 99 44 3c 92 a6 11 bd
       -0.081716046 0.05482372 0.011999503 -0.035559244
000170 78 bd 48 3c f6 6b 1e 3d b1 3b 4d bd 22 8d 39 bd
       0.012252204 0.03867718 -0.050105754 -0.04530061
000180 c5 ce 82 3d b3 21 35 bd 83 b0 a5 3d 7c 40 a7 bc
       0.063870944 -0.04422159 0.080903076 -0.02041649
000190 e9 e8 57 bd 06 45 64 3d 80 8e 0a 3c dd c2 ac 3d
       -0.052712355 0.05572989 0.008456826 0.08435605
0001a0 21 20 8f bd 60 64 93 bd 8e 90 94 bd f8 69 f6 bc
       -0.0698855 -0.071968794 -0.07254134 -0.030079827
0001b0 22 9b 7a 3d d5 5c a5 bd 43 dd b4 bd ae ed 59 3d
       0.061183102 -0.08074347 -0.08831265 0.053205185
0001c0 5c 01 b2 bc 85 9b 74 bd de 05 76 bd e0 8a de bb
       -0.021729164 -0.059718627 -0.06006419 -0.0067914575
0001d0 14 53 0c bd 49 de a0 3d cb 79 81 3d f8 47 a8 3c
       -0.034258917 0.078548975 0.06322058 0.02054213
0001e0 ac b9 83 bc 56 1c 61 3d 22 b6 86 bd 4e 5c 75 bd
       -0.016079746 0.054958664 -0.06577708 -0.05990248
0001f0 b9 f8 ad bd f8 99 05 bd 8a bb ad bd 1e fa 74 bd
       -0.08494706 -0.03261754 -0.08483036 -0.059808843
000200 0c fd 0f 3d 60 62 71 3c bd 8d 95 3d f5 68 40 bd
       0.035153434 0.014732927 0.07302425 -0.046975095
000210 c5 8f 12 bd d6 5f 27 3d 37 25 b4 3d 9e 59 73 3d
       -0.03578164 0.04086288 0.08796161 0.059411637
000220 71 39 9e bd 1a cb 4b bd b7 a4 ac 3d b2 4d 1c 3d
       -0.077258 -0.04975424 0.08429854 0.038160034
000230 13 61 ac bd 78 a5 eb 3c 49 de 61 bd 7e b7 64 3d
       -0.08416953 0.028765425 -0.05514363 0.055839054
000240 60 95 b9 3c 0e 59 37 3d b5 5d 8f bd 10 e8 22 bd
       0.022654235 0.044762664 -0.07000295 -0.039772093
000250 3f 36 16 bd 6c da 15 bd 84 14 8f bd 10 e1 c4 bb
       -0.036672827 -0.036585256 -0.06986335 -0.006008275
000260 0c e7 0f bd cd d4 38 bd 6b cd 36 bd b9 f0 14 bd
       -0.035132453 -0.045124818 -0.044629496 -0.036362384
000270 e3 5c 11 bd dc 2a 06 3d e8 8d 76 bc 22 2c a0 bd
       -0.035488974 0.032755718 -0.0150484815 -0.07820918
000280 23 be a1 3d cb 8e 24 bd ba a3 54 3d 1f 75 21 bd
       0.07897594 -0.04017524 0.051913954 -0.039418336
000290 e8 65 88 3c a3 17 9c bd 3f d2 8a 3d 63 09 a0 bd
       0.016650155 -0.07621696 0.067783825 -0.078142904
0002a0 67 f8 a4 3d 5b 9d 52 bd 62 22 49 3d d4 23 8c bd
       0.080551915 -0.051419597 0.049105056 -0.06842771
0002b0 1a ef 4e 3d 26 71 06 3d b8 3e ae 3c 69 84 a0 bd
       0.050520994 0.03282275 0.021270141 -0.07837755
0002c0 eb 84 0a bd 70 9f f4 bb 32 3c 32 bd d2 bc 73 3d
       -0.033818167 -0.0074652955 -0.043514438 0.059506245
0002d0 68 3b 3b bc f0 ae fb bb f6 b3 95 bd 95 57 9d 3d
       -0.011427738 -0.0076807663 -0.073097154 0.076827206
0002e0 80 72 c6 bc de dd 00 3d 5e 36 51 3d 04 3b 92 bd
       -0.02422452 0.03146159 0.05107724 -0.071401626
0002f0 a0 d8 f6 bb cb 4b 8c 3d bf 9a ad 3d b3 5e 65 bd
       -0.007533148 0.06850394 0.08476781 -0.055998515
000300 10 90 93 bd 7a 1a 2d 3d 0a 76 56 3d 54 05 2e bd
       -0.07205212 0.04226158 0.052358665 -0.04248555
000310 90 97 b6 3c 27 bd 0d bd dc 74 9d bc 50 b7 3a 3c
       0.022289068 -0.034604218 -0.019220762 0.011396244
000320 20 3a e2 bc 3c 3e 09 3d 5e 8a 4e 3d 52 2f 6e 3d
       -0.027615607 0.033506617 0.050424926 0.058150597
000330 4c 92 2c bd b0 4c fa bc 29 f4 a9 3d f7 48 98 3d
       -0.042131707 -0.030554146 0.08298523 0.07435792
000340 0e 2a 7f 3d c6 93 5e 3d 19 5f 97 3d 38 43 28 bc
       0.062295966 0.054340146 0.07391185 -0.010269932
000350 66 0b 73 bd 54 80 70 bd 73 c6 9c 3d be e3 59 3d
       -0.059337042 -0.058716133 0.07655039 0.053195707
000360 b9 3c a1 bd 4c cb 9e bc c3 c6 9e 3d 8c 42 a1 bc
       -0.0787291 -0.019384049 0.077527545 -0.019685052
000370 c4 94 6e bd c0 42 79 3b 68 d5 a2 3c 52 08 a5 bd
       -0.058247343 0.003803417 0.01987715 -0.080582276
000380 a5 e6 8a 3d 3c e4 1d bd d0 1f 8b 3c 00 8b 2b bc
       0.06782273 -0.03854774 0.016982943 -0.010470152
000390 e8 58 24 bd b8 cb 23 bd a8 ab b9 3c 4a 9a 2e 3d
       -0.04012385 -0.039989203 0.02266486 0.04262761
0003a0 d6 22 5a 3d 0a d2 38 3d 90 c1 2f 3c 52 bf 6f bd
       0.05325588 0.045122184 0.010727301 -0.058532067
0003b0 dd b4 42 bd c4 dd de 3c a0 0d 99 3c f9 3f 4e bd
       -0.047535766 0.027205355 0.018683255 -0.050353978
0003c0 44 db 99 bd 50 47 60 bd 3d 32 96 bd 24 7b dd 3c
       -0.07512525 -0.05475551 -0.07333801 0.027036257
0003d0 af 48 12 bd f0 2b be bb 6d 2f 5c bd 07 c1 0d bd
       -0.035713848 -0.0058035776 -0.053756166 -0.034607913
0003e0 0c fb 06 bd a4 df 14 bd a0 57 89 bb 4a 54 68 3d
       -0.03295426 -0.036346093 -0.004191354 0.05672101
0003f0 ec 25 96 bd 50 ac ac bb b8 aa 44 3c 75 5b a9 bd
       -0.07331452 -0.0052695647 0.012003593 -0.08269397

layer3.bias f4 [2]
000000 10 c7 62 3c 1e 9d 27 bd
       0.0138414055 -0.040921323
